…
yer + RELU activation\n        # (N, 400) Tensor input, outputs a (N, 120) Tensor\n        f5 = F.relu(self.fc1(s4))\n        # Fully connected layer + RELU activation\n        # (N, 120) Tensor input, outputs a (N, 84) Tensor\n        f6 = F.relu(self.fc2(f5))\n        # Output layer:\n        # (N, 84) Tensor input, outputs a (N, 10) Tensor\n        output = self.fc3(f6)\n        return output\n\nnet = Net()\nprint(net)","key":"xKnRHvHNvv"},{"type":"outputs","id":"i6rR2EM6sIQp2WrmO3orS","children":[{"type":"output","jupyter_data":{"name":"stdout","output_type":"stream","text":"Net(\n  (conv1): Conv2d(1, 6, kernel_size=(5, 5), stride=(1, 1))\n  (conv2): Conv2d(6, 16, kernel_size=(5, 5), stride=(1, 1))\n  (fc1): Linear(in_features=400, out_features=120, bias=True)\n  (fc2): Linear(in_features=120, out_features=84, bias=True)\n  (fc3): Linear(in_features=84, out_features=10, bias=True)\n)\n"},"children":[],"key":"NjuzeD71KC"}],"key":"KouvXSdNYk"}],"key":"f5tC6sASXQ"},{"type":"block","kind":"notebook-content","children":[{"type":"paragraph","position":{"start":{"line":1,"column":1},"end":{"line":1,"column":1}},"children":[{"type":"text","value":"Inspect the number of learnable parameters","position":{"start":{"line":1,"column":1},"end":
…
"Put the network on GPU if possible. Note that when we train the network, we also need to put the data on the GPU.","position":{"start":{"line":1,"column":1},"end":{"line":1,"column":1}},"key":"oXz9rYxJxe"}],"key":"ftYyhZTGkb"}],"key":"ATnt3vHaOc"},{"type":"block","kind":"notebook-code","children":[{"type":"code","lang":"python","executable":true,"value":"net.to(device)","key":"npIRxEqnex"},{"type":"outputs","id":"dHjfFzc_an4iS7yb2DjC_","children":[{"type":"output","jupyter_data":{"output_type":"execute_result","execution_count":154,"metadata":{},"data":{"text/plain":{"content":"Net(\n  (conv1): Conv2d(3, 6, kernel_size=(5, 5), stride=(1, 1))\n  (pool): MaxPool2d(kernel_size=2, stride=2, padding=0, dilation=1, ceil_mode=False)\n  (conv2): Conv2d(6, 16, kernel_size=(5, 5), stride=(1, 1))\n  (fc1): Linear(in_features=400, out_features=120, bias=True)\n  (fc2): Linear(in_features=120, out_features=84, bias=True)\n  (fc3): Linear(in_features=84, out_features=10, bias=True)\n)","content_type":"text/plain"}}},"children":[],"key":"VKH8AlzOeP"}],"key":"LTIgxLR1Om"}],"key":"lWW5xsw3fg"},{"type":"block","kind":"notebook-content","children":[{"type":"paragraph","position":{"start":{"line":1,"column":1},"end":{"line":1,"column":1}},"children":[{"type":"text","value":"We’ll use cross-entropy loss and an SGD optimizer","position":{"
…
