…
true,"value":"from torchinfo import summary\nsummary(model, input_size=(1, 1, 28, 28))","key":"sEvO2WcGni"},{"type":"outputs","id":"bV6MMuAoBTKE4zvSpeKhC","children":[{"type":"output","jupyter_data":{"output_type":"execute_result","execution_count":23,"metadata":{},"data":{"text/plain":{"content":"==========================================================================================\nLayer (type:depth-idx)                   Output Shape              Param #\n==========================================================================================\nSequential                               [1, 64, 3, 3]             --\n├─Conv2d: 1-1                            [1, 32, 26, 26]           320\n├─ReLU: 1-2                              [1, 32, 26, 26]           --\n├─MaxPool2d: 1-3                         [1, 32, 13, 13]           --\n├─Conv2d: 1-4                            [1, 64, 11, 11]           18,496\n├─ReLU: 1-5                              [1, 64, 11, 11]           --\n├─MaxPool2d: 1-6                         [1, 64, 5, 5]             --\n├─Conv2d: 1-7                            [1, 64, 3, 3]             36,928\n├─ReLU: 1-8                              [1, 64, 3, 3]             --\n==========================================================================================\nTotal params: 55,744\nTrainable params: 55,744\nNon-trainable params: 0\nTotal mult-adds (M): 2.79\n==========================================================================================\nInput size (MB): 0.00\nForward/backward pass size (MB): 0.24\nParams size (MB): 0.22\nEstimated Total Size (MB): 0
…
"vbwh9sgeyidx-code","visibility":"hide","enumerator":"19","html_id":"vbwh9sgeyidx-code","key":"r98aMZYDeF"},{"type":"outputs","id":"QcM56kX9Ky2KbbTHsL5sc","children":[{"type":"output","jupyter_data":{"output_type":"execute_result","execution_count":25,"metadata":{},"data":{"text/plain":{"content":"==========================================================================================\nLayer (type:depth-idx)                   Output Shape              Param #\n==========================================================================================\nSequential                               [1, 10]                   --\n├─Conv2d: 1-1                            [1, 32, 26, 26]           320\n├─ReLU: 1-2                              [1, 32, 26, 26]           --\n├─MaxPool2d: 1-3                         [1, 32, 13, 13]           --\n├─Conv2d: 1-4                            [1, 64, 11, 11]           18,496\n├─ReLU: 1-5                              [1, 64, 11, 11]           --\n├─MaxPool2d: 1-6                         [1, 64, 5, 5]             --\n├─Conv2d: 1-7                            [1, 64, 3, 3]             36,928\n├─ReLU: 1-8                              [1, 64, 3, 3]             --\n├─Flatten: 1-9                           [1, 576]                  --\n├─Linear: 1-10                           [1, 64]                   36,928\n├─ReLU: 1-11                             [1, 64]                   --\n├─Linear: 1-12                           [1, 10]                   650\n==========================================================================================\nTotal params: 93,322\nTrainable params: 93,322\nNon-trainable params: 0\nTotal mult-adds (M): 2.82\n==========================================================================================\nInput size (MB): 0.00\nForward/backward pass size (MB): 0.24\nParams size (MB): 0.37\nEstimated Total Size (MB): 0
…
layer for 10 classes\n)\nsummary(model, input_size=(1, 1, 28, 28))","visibility":"hide","key":"wueP8aBUF2"},{"type":"outputs","id":"gr6C9Kvd3maKgBaHzhn-V","children":[{"type":"output","jupyter_data":{"output_type":"execute_result","execution_count":26,"metadata":{},"data":{"text/plain":{"content":"==========================================================================================\nLayer (type:depth-idx)                   Output Shape              Param #\n==========================================================================================\nSequential                               [1, 10]                   --\n├─Conv2d: 1-1                            [1, 32, 26, 26]           320\n├─ReLU: 1-2                              [1, 32, 26, 26]           --\n├─MaxPool2d: 1-3                         [1, 32, 13, 13]           --\n├─Conv2d: 1-4                            [1, 64, 11, 11]           18,496\n├─ReLU: 1-5                              [1, 64, 11, 11]           --\n├─MaxPool2d: 1-6                         [1, 64, 5, 5]             --\n├─Conv2d: 1-7                            [1, 64, 3, 3]             36,928\n├─ReLU: 1-8                              [1, 64, 3, 3]             --\n├─AdaptiveAvgPool2d: 1-9                 [1, 64, 1, 1]             --\n├─Flatten: 1-10                          [1, 64]                   --\n├─Linear: 1-11                           [1, 10]                   650\n==========================================================================================\nTotal params: 56,394\nTrainable params: 56,394\nNon-trainable params: 0\nTotal mult-adds (M): 2.79\n==========================================================================================\nInput size (MB): 0.00\nForward/backward pass size (MB): 0.24\nParams size (MB): 0.23\nEstimated Total Size (MB): 0
…
"c2vpj0ggyidy-code","visibility":"hide","enumerator":"23","html_id":"c2vpj0ggyidy-code","key":"bhUmhprHN0"},{"type":"outputs","id":"3eEyYWMENdzlAkOoHvFjo","children":[{"type":"output","jupyter_data":{"output_type":"execute_result","execution_count":33,"metadata":{},"data":{"text/plain":{"content":"==========================================================================================\nLayer (type:depth-idx)                   Output Shape              Param #\n==========================================================================================\nCatImageClassifier                       [1, 1]                    --\n├─Sequential: 1-1                        [1, 128, 1, 1]            --\n│    └─Conv2d: 2-1                       [1, 32, 148, 148]         896\n│    └─ReLU: 2-2                         [1, 32, 148, 148]         --\n│    └─MaxPool2d: 2-3                    [1, 32, 74, 74]           --\n│    └─Conv2d: 2-4                       [1, 64, 72, 72]           18,496\n│    └─ReLU: 2-5                         [1, 64, 72, 72]           --\n│    └─MaxPool2d: 2-6                    [1, 64, 36, 36]           --\n│    └─Conv2d: 2-7                       [1, 128, 34, 34]          73,856\n│    └─ReLU: 2-8                         [1, 128, 34, 34]          --\n│    └─MaxPool2d: 2-9                    [1, 128, 17, 17]          --\n│    └─Conv2d: 2-10                      [1, 128, 15, 15]          147,584\n│    └─ReLU: 2-11                        [1, 128, 15, 15]          --\n│    └─MaxPool2d: 2-12                   [1, 128, 7, 7]            --\n│    └─AdaptiveAvgPool2d: 2-13           [1, 128, 1, 1]            --\n├─Sequential: 1-2                        [1, 1]                    --\n│    └─Linear: 2-14                      [1, 512]                  66,048\n│    └─ReLU: 2-15                        [1, 512]                  --\n│    └─Linear: 2-16                      [1, 1]                    513\n==========================================================================================\nTotal params: 307,393\nTrainable params: 307,393\nNon-trainable params: 0\nTotal mult-adds (M): 234.16\n==========================================================================================\nInput size (MB): 0.27\nForward/backward pass size (MB): 9.68\nParams size (MB): 1.23\nEstimated Total Size (MB
…
1e-4)\n    \nmodel = CatImageClassifier()\nsummary(model, input_size=(1, 3, 150, 150))","key":"sdT92RLKyx"},{"type":"outputs","id":"VrZ7icuxyaracQc5uF3Xv","children":[{"type":"output","jupyter_data":{"output_type":"execute_result","execution_count":38,"metadata":{},"data":{"text/plain":{"content":"==========================================================================================\nLayer (type:depth-idx)                   Output Shape              Param #\n==========================================================================================\nCatImageClassifier                       [1, 1]                    --\n├─Sequential: 1-1                        [1, 128, 1, 1]            --\n│    └─Conv2d: 2-1                       [1, 32, 148, 148]         896\n│    └─ReLU: 2-2                         [1, 32, 148, 148]         --\n│    └─MaxPool2d: 2-3                    [1, 32, 74, 74]           --\n│    └─Conv2d: 2-4                       [1, 64, 72, 72]           18,496\n│    └─ReLU: 2-5                         [1, 64, 72, 72]           --\n│    └─MaxPool2d: 2-6                    [1, 64, 36, 36]           --\n│    └─Conv2d: 2-7                       [1, 128, 34, 34]          73,856\n│    └─ReLU: 2-8                         [1, 128, 34, 34]          --\n│    └─MaxPool2d: 2-9                    [1, 128, 17, 17]          --\n│    └─Conv2d: 2-10                      [1, 128, 15, 15]          147,584\n│    └─ReLU: 2-11                        [1, 128, 15, 15]          --\n│    └─MaxPool2d: 2-12                   [1, 128, 7, 7]            --\n│    └─AdaptiveAvgPool2d: 2-13           [1, 128, 1, 1]            --\n├─Sequential: 1-2                        [1, 1]                    --\n│    └─Linear: 2-14                      [1, 512]                  66,048\n│    └─ReLU: 2-15                        [1, 512]                  --\n│    └─Dropout: 2-16                     [1, 512]                  --\n│    └─Linear: 2-17                      [1, 1]                    513\n==========================================================================================\nTotal params: 307,393\nTrainable params: 307,393\nNon-trainable params: 0\nTotal mult-adds (M): 234.16\n==========================================================================================\nInput size (MB): 0.27\nForward/backward pass size (MB): 9.68\nParams size (MB): 1.23\nEstimated Total Size (MB
…
ary(vgg16_model_feat, input_size=(1, 3, 224, 224))  # Pretraining images where 224x224","key":"zdOaT7Wv5M"},{"type":"outputs","id":"DQZYARsUa8uo9E1tTpN5I","children":[{"type":"output","jupyter_data":{"output_type":"execute_result","execution_count":55,"metadata":{},"data":{"text/plain":{"content":"==========================================================================================\nLayer (type:depth-idx)                   Output Shape              Param #\n==========================================================================================\nSequential                               [1, 512, 7, 7]            --\n├─Conv2d: 1-1                            [1, 64, 224, 224]         1,792\n├─ReLU: 1-2                              [1, 64, 224, 224]         --\n├─Conv2d: 1-3                            [1, 64, 224, 224]         36,928\n├─ReLU: 1-4                              [1, 64, 224, 224]         --\n├─MaxPool2d: 1-5                         [1, 64, 112, 112]         --\n├─Conv2d: 1-6                            [1, 128, 112, 112]        73,856\n├─ReLU: 1-7                              [1, 128, 112, 112]        --\n├─Conv2d: 1-8                            [1, 128, 112, 112]        147,584\n├─ReLU: 1-9                              [1, 128, 112, 112]        --\n├─MaxPool2d: 1-10                        [1, 128, 56, 56]          --\n├─Conv2d: 1-11                           [1, 256, 56, 56]          295,168\n├─ReLU: 1-12                             [1, 256, 56, 56]          --\n├─Conv2d: 1-13                           [1, 256, 56, 56]          590,080\n├─ReLU: 1-14                             [1, 256, 56, 56]          --\n├─Conv2d: 1-15                           [1, 256, 56, 56]          590,080\n├─ReLU: 1-16                             [1, 256, 56, 56]          --\n├─MaxPool2d: 1-17                        [1, 256, 28, 28]          --\n├─Conv2d: 1-18                           [1, 512, 28, 28]          1,180,160\n├─ReLU: 1-19                             [1, 512, 28, 28]          --\n├─Conv2d: 1-20                           [1, 512, 28, 28]          2,359,808\n├─ReLU: 1-21                             [1, 512, 28, 28]          --\n├─Conv2d: 1-22                           [1, 512, 28, 28]          2,359,808\n├─ReLU: 1-23                             [1, 512, 28, 28]          --\n├─MaxPool2d: 1-24                        [1, 512, 14, 14]          --\n├─Conv2d: 1-25                           [1, 512, 14, 14]          2,359,808\n├─ReLU: 1-26                             [1, 512, 14, 14]          --\n├─Conv2d: 1-27                           [1, 512, 14, 14]          2,359,808\n├─ReLU: 1-28                             [1, 512, 14, 14]          --\n├─Conv2d: 1-29                           [1, 512, 14, 14]          2,359,808\n├─ReLU: 1-30                             [1, 512, 14, 14]          --\n├─MaxPool2d: 1-31                        [1, 512, 7, 7]            --\n==========================================================================================\nTotal params: 14,714,688\nTrainable params: 14,714,688\nNon-trainable params: 0\nTotal mult-adds (G): 15.36\n==========================================================================================\nInput size (MB): 0.60\nForward/backward pass size (MB): 108.38\nParams size (MB): 58.86\nEstimated Total 
…
